siglip/freq_mlp.safetensors (safetensors, 7276 bytes, 5 tensors)

net.0.bias f4 [24]
000000 e2 3a 77 3e 2a a5 74 3e c2 2d 81 3e 01 72 ea 3d
       0.24143556 0.2389113 0.25230223 0.11447526
000010 cd c4 80 3e 39 83 98 bd 5f 39 dd bc f7 30 4f 3e
       0.25150147 -0.07446904 -0.027004896 0.20233522
000020 04 ea 83 3e 55 b7 84 3e 8e 8c 81 3e 5f a4 7f bd
       0.25764477 0.2592112 0.25302547 -0.062412616
000030 f6 86 7e 3e f3 6b 85 3e 3c 85 86 3e 89 18 75 3e
       0.24856171 0.2605892 0.26273525 0.2393514
000040 56 8c 87 3e 8c 1e d0 be aa 41 88 3e 0b 4e 74 3e
       0.26474255 -0.40648305 0.26612598 0.23857896
000050 42 27 09 bf 89 b6 6a 3e 49 74 8b 3e b8 e4 67 be
       -0.5357553 0.22921194 0.27237156 -0.22645843

net.0.weight f4 [24]
000000 40 ea 2c 3f 4d 2b 13 3f ee eb 0e 3f a8 4c 8d 3f
       0.6754494 0.57487947 0.5582875 1.1039019
000010 2a 31 05 3f 0c bb 92 3f af 6c bc 3f 14 4a 54 3f
       0.52028143 1.1463332 1.4720668 0.82925534
000020 bc a7 0b 3f e3 f7 0e 3f 3f 30 08 3f 10 4e b3 3f
       0.5455282 0.55846995 0.5319862 1.4008198
000030 da 8b 07 3f a0 4e 0d 3f 8d 6e 0c 3f df 5b 01 3f
       0.5294777 0.551981 0.5485619 0.5053081
000040 12 5c 0f 3f ca 53 fa 3e e4 9f 0f 3f 1e 24 19 3f
       0.55999863 0.4889205 0.5610335 0.59820735
000050 58 d4 be 3e c1 c6 1c 3f 90 4d 14 3f 86 a8 50 3f
       0.3727138 0.61240774 0.5793085 0.81507146

net.1.bias f4 [64]
000000 5c 73 a1 bd 91 9e db bd 8a c8 fa bd e9 01 2f 3c
       -0.07883331 -0.107236035 -0.12245281 0.010681608
000010 9a 6d 1a 3e e3 95 d3 3d 74 9d a6 bd 1a 82 73 3d
       0.15080872 0.10331323 -0.081355006 0.059450246
000020 6a 2f 94 3d 8b 5f a2 3c 28 f4 14 bd 13 89 dc bc
       0.07235606 0.019820949 -0.036365658 -0.02692083
000030 bd 81 f1 bd af 30 a4 bd 5b 3b b8 ba aa 84 47 3d
       -0.11792324 -0.08017098 -0.0014055775 0.048710503
000040 b1 37 72 bc 37 bc 2b be 89 bc 13 3e 57 1e 98 bd
       -0.014783786 -0.16771017 0.14427389 -0.07427662
000050 8f f7 a6 3d 80 f6 ab 3c 35 56 b6 bd 9e 79 b2 bd
       0.08152687 0.020991564 -0.089031614 -0.08714603
000060 8c 06 6a 3d 0e 1b 05 3e be 6e 3f be 53 e0 91 bd
       0.05713515 0.12998602 -0.18694589 -0.071228646
000070 0d 3a b4 bd 02 dd 44 bd 23 44 ab bc d1 4a 02 be
       -0.08800135 -0.048062332 -0.020906514 -0.12723853
000080 d6 08 48 bd 42 52 7e bd 46 30 a0 bd d9 71 f8 bd
       -0.04883655 -0.062090166 -0.078217074 -0.1213109
000090 63 34 01 3d 2e 38 ad 3d 38 9a 14 be 56 99 bf 3d
       0.0315441 0.08457981 -0.14511955 0.093554184
0000a0 f4 bc 6e 3c f9 e2 b7 bd b1 33 44 be 9a 1c 15 3e
       0.014571417 -0.089788385 -0.19160344 0.14561692
0000b0 2e 05 4f 3d c1 59 45 bd 05 f7 de bd 6f 06 66 bd
       0.05054205 -0.0481813 -0.10886959 -0.05615848
0000c0 fa 63 c5 3d c9 94 c0 bd 16 b6 40 be 17 20 4c be
       0.0963821 -0.094033785 -0.1881946 -0.19934116
0000d0 06 8f 64 bd bc 84 76 3d 5e 95 8e bd 3e 0a 83 bd
       -0.05580046 0.06018518 -0.06962083 -0.06398438
0000e0 78 26 1f be 3c 21 98 bd 10 44 5a 3d ce 25 50 3d
       -0.15542018 -0.07428214 0.053287566 0.050817303
0000f0 63 39 90 3d 72 2f c9 3d 80 6c ea 3c e8 0d 7c 3d
       0.07042196 0.098235026 0.02861619 0.0615367

net.1.weight f4 [64, 24]
000000 62 a0 ed be 69 21 3c be b1 ad f6 bd 77 c3 97 3e
       -0.46411425 -0.1837212 -0.12044848 0.29641315
000010 cb 3d 60 bd 4e 0d bb bd 01 44 86 3e ea 72 1f bd
       -0.05474643 -0.09133397 0.26223758 -0.03892795
000020 7d 7c 55 bd f8 6f 55 bc db f5 ce 3d d9 13 08 be
       -0.052120674 -0.013027184 0.10105487 -0.13288821
000030 36 27 e6 bd 4d ab 19 3e 28 45 1d 3e 61 a4 80 bd
       -0.11237948 0.15006752 0.15358412 -0.06281353
000040 95 b9 c0 3d d4 f9 07 3d 0f ed 90 3d b5 f3 01 3d
       0.09410397 0.03319724 0.07076465 0.031726558
000050 90 c0 d6 3d af 03 6a 3c af 69 2c 3e 9f f9 55 3d
       0.10485947 0.014283105 0.1683719 0.05224001
000060 6b d4 45 be 1a 74 4c 3e dc fa 2c 3e 9e df a2 3e
       -0.19319312 0.19966164 0.1689257 0.3181123
000070 f6 6f fe 3d 15 d5 9c 3c b7 77 b3 3c f0 13 f0 bd
       0.124236986 0.019144574 0.02190767 -0.11722553
000080 df 75 b7 3d d5 f8 b3 3d e5 1f 0c 3e d0 8c b5 3d
       0.08958029 0.08787695 0.13684042 0.088647485
000090 b2 3f 29 3e 36 bd 43 3e 9c 97 48 3e 32 71 5d 3d
       0.16528204 0.19115147 0.19589084 0.05406303
0000a0 ec b4 2a 3e 7b 10 85 3d a0 47 9a 3c 6d 9d 0f 3e
       0.16670579 0.06497284 0.018832982 0.14024897
0000b0 a5 88 dc 3d 39 ef b0 bd 4f f0 05 3e 8f 87 12 3d
       0.107682504 -0.08639378 0.13079952 0.03577381
0000c0 07 90 8f 3d 60 44 ea 3d 83 fd e3 3d bc c7 8c 3d
       0.07009893 0.11438823 0.11132338 0.06874034
0000d0 be ef 96 3d 48 6e f2 3d 90 73 f2 3e 70 00 d5 3e
       0.07369946 0.11837441 0.47353792 0.41601896
0000e0 f6 c6 f0 bd fd 23 a6 3d 2d 73 e3 bd a9 cd a7 3e
       -0.11756699 0.08112333 -0.111059524 0.32774094
0000f0 2d 0c 8b 3c ff 06 8c bd 32 a4 fd bd 3a 8f 5d 3c
       0.01697358 -0.06837272 -0.123848334 0.013522917
000100 24 14 3a 3e e3 86 22 be c2 53 c7 bd ca 0f 22 bd
       0.18171746 -0.15871768 -0.097327724 -0.03956584
000110 bb eb be bc 04 1f b4 3b a9 85 07 be df 6f 19 bd
       -0.023305764 0.0054968614 -0.13234581 -0.037460204
000120 ff 46 37 3f fa 97 4c 3e 25 4f 57 bd 67 14 e7 be
       0.71592706 0.1997985 -0.052565712 -0.45132753
000130 d6 ae 65 3d 97 44 ac bd 11 e5 00 bf cd 86 26 3d
       0.05607494 -0.0841152 -0.5034953 0.0406559
000140 9e 1d 14 3e 29 a8 8d 3c 7b a5 3d 3c 1a 92 33 be
       0.14464423 0.0172921 0.011575098 -0.17536202
000150 70 45 bf 3d c2 3a d9 3c 1d 53 45 bb 97 f8 be bd
       0.09339416 0.026517276 -0.0030109354 -0.093247585
000160 ff e6 09 be c3 34 01 be 30 c4 df bd 1f aa 2e 3e
       -0.13467024 -0.12617783 -0.10926092 0.17057084
000170 74 66 18 be cb 8d 9f 3d 7c 6b cc 3d f7 01 10 3e
       -0.14882833 0.07790717 0.099814385 0.1406325
000180 ba b3 fd 3e e0 3e 62 bd 46 2f a4 be 41 7e ae be
       0.49551183 -0.055235744 -0.32067317 -0.340807
000190 20 d4 47 be 7a 47 02 3e e3 f2 10 bf 62 83 d7 3a
       -0.19514513 0.12722579 -0.56620616 0.0016442353
0001a0 34 8c 21 bd a9 7c 1f bd e4 77 aa bd 7b c0 d4 be
       -0.03944035 -0.038937245 -0.083236486 -0.415531
0001b0 d2 48 27 be e0 53 f2 bd e0 05 4e bc fd a3 83 3d
       -0.16336372 -0.11832404 -0.012574643 0.06427763
0001c0 6e b3 4d 3d 7d d6 47 be 01 d1 a0 bd 72 c2 e7 3d
       0.050219946 -0.19515415 -0.07852364 0.113163844
0001d0 b2 76 2a be 2d d2 d8 bd 8d 3b 83 3d 53 fb 52 3e
       -0.16646841 -0.10586963 0.06407843 0.20603685
0001e0 58 86 52 3f 50 13 d5 bb e2 e8 17 be e7 9c ac be
       0.8223624 -0.0065025464 -0.14834931 -0.33713457
0001f0 9a 5b ed bc 28 1c 3d bf 52 26 40 be 2b b7 91 3e
       -0.028974343 -0.7387109 -0.18764618 0.2846006
000200 06 98 91 3c 89 af 9b 3d a2 21 3f bc 11 a6 96 3d
       0.017772686 0.0760184 -0.0116657335 0.073558934
000210 f6 7b 4e bc d2 fe 4c bc aa d4 24 be 5b eb 55 3d
       -0.012602797 -0.012511926 -0.1609675 0.052226406
000220 13 dc 15 bd 13 ba ae be 88 23 08 be 65 0d af bc
       -0.036586832 -0.34126338 -0.13294804 -0.021368692
000230 48 0b b9 be 1e de 24 3e 27 4f 09 be a6 e1 98 3e
       -0.3614142 0.16100356 -0.134091 0.29859656
000240 36 d5 ac 3d 92 b6 ed bd 43 7e 5b 3d be 00 18 3c
       0.08439104 -0.11607088 0.05358721 0.009277521
000250 0e db d6 3d 6b e0 08 3c ad 50 1f 3e 45 e6 23 3d
       0.10491 0.008354287 0.15558119 0.040014524
000260 97 69 82 3e ca 16 f7 bc a3 3d 84 3d 9d 6d 24 bd
       0.25471184 -0.030162234 0.06457069 -0.040143598
000270 10 e5 27 3e ff b5 26 3e c7 ca 52 3d c8 75 64 3e
       0.16395974 0.16280364 0.051462915 0.22310555
000280 72 0d 82 3d ff dc 51 3d 85 49 f0 bc ba 05 51 3e
       0.06350221 0.05123615 -0.029331932 0.20412341
000290 72 de b3 3d b6 d4 5a bd d2 0e 60 3e 37 61 0d bc
       0.087826625 -0.053425513 0.21880654 -0.008629135
0002a0 43 94 1c 3d de fe 3c bd 15 3c 19 3d 72 46 60 3e
       0.03822733 -0.046141498 0.037410814 0.21901873
0002b0 60 84 25 3e df f6 dc 3b 09 b5 57 3d 56 b8 c8 3c
       0.16163778 0.0067432965 0.052662883 0.02450196
0002c0 4c 46 0d 3e 29 60 34 3e dc 05 c1 3c dd c2 09 3d
       0.13796347 0.17614807 0.023562364 0.0336331
0002d0 02 88 01 3e bc 09 88 3e 02 42 86 3e fb 85 5b 3e
       0.12649539 0.26569927 0.26222235 0.21437828
0002e0 83 26 1d 3d 44 ac 5a bd 2b 33 d8 3c 4c 12 fb 3d
       0.038366806 -0.05338694 0.026391586 0.12259349
0002f0 2f ed e4 3d 92 61 82 bd 17 b8 6b 3d 56 1a 2f bc
       0.11178052 -0.06366266 0.05754861 -0.010687431
000300 36 95 5d be 72 b7 2c 3d 5d 91 01 3d 7a 2d e7 3d
       -0.2163895 0.042167135 0.03163277 0.11287971
000310 bc 8f 8a 3d e4 52 95 bc b3 e2 90 ba 3f e0 f7 3b
       0.067656964 -0.018228002 -0.001105389 0.007564574
000320 e9 87 09 be 4d 0c 95 3d 89 93 16 be bf 3b 3c 3c
       -0.13430752 0.07277737 -0.14704718 0.011488854
000330 67 f6 07 3e 63 e7 6e 3d c3 08 b2 3c 42 c4 26 be
       0.13277589 0.058326136 0.021732694 -0.16285804
000340 da 12 f1 bd bc 23 c6 3b 3d a4 09 be b5 bf 92 bd
       -0.11771174 0.0060467403 -0.13441558 -0.071654715
000350 61 90 27 bd d7 69 d6 bd 65 bf 45 3c c1 c1 aa bc
       -0.040909175 -0.10469406 0.012069558 -0.020844342
000360 d3 9f 0d be 7f 19 c0 bc e9 15 4e 3d 82 51 0c 3e
       -0.138305 -0.023449657 0.050313864 0.13702968
000370 1a ab f5 3d ac d1 0a 3b 0a 25 e6 b9 af 81 2b 3c
       0.11995526 0.0021182103 -0.00043896615 0.010467931
000380 7e 51 e1 3b ff a5 d2 3d 61 6d 39 bd 1b eb 83 bb
       0.0068761697 0.102855675 -0.045270327 -0.0040258295
000390 06 18 e2 bb 8e 9e 22 bc 87 de b6 bd 76 e3 4b bd
       -0.0068998365 -0.009925498 -0.089291625 -0.04977747
0003a0 bf fa 6f 3c 04 60 2e bb 56 49 6f bc c9 f2 0a 3e
       0.014647185 -0.0026607523 -0.014604887 0.13569178
0003b0 77 fc 42 3c db 0a c4 bd 9e 5f fe 3d 1b 6f ec 3b
       0.011901013 -0.09572383 0.12420581 0.0072153932
0003c0 00 08 1c 3c 01 6f 00 be f9 cd 55 3d 4b 4c 58 3e
       0.009523392 -0.12542345 0.052198384 0.21122853
0003d0 ec 73 44 3d fb 91 4e 3c 67 09 73 bc 3a e1 4a bd
       0.047962114 0.012608047 -0.014833785 -0.0495312
0003e0 cf 3e 53 3e 8a ae a1 bc a0 c7 cb 3d dc 38 b9 3c
       0.20629428 -0.019736547 0.09950185 0.02261012
0003f0 18 b5 04 bd 79 af 16 3e 20 3b 10 3e f9 24 ea 3b
       -0.032399267 0.14715375 0.14085054 0.0071455208

net.3.weight f4 [1, 64]
000000 1b 4c 04 bc 0d 0d 19 bb cc 99 0b be e5 fe d8 3d
       -0.008074786 -0.0023353726 -0.13632888 0.10595492
000010 9a 98 35 3e b9 9d bc 3e 72 70 6e 3a 0e d2 29 bb
       0.17733994 0.36839083 0.0009095735 -0.0025912556
000020 ca a2 e1 3a 7c 8f d0 b9 36 2f eb bb 67 45 9d bb
       0.0017214653 -0.00039779756 -0.007177259 -0.004799533
000030 f6 63 a2 3d 63 20 91 b9 f4 f0 1f bc 5b 4a 34 bb
       0.07929222 -0.00027680685 -0.009762038 -0.002751014
000040 cf 8b 1c be d1 05 38 be c6 d7 82 3a b7 2b 1a 3e
       -0.15287708 -0.17970969 0.0009982518 0.15055738
000050 67 af 05 bb 33 1c ae bb d2 34 1f bb 29 97 2e 3a
       -0.0020398737 -0.00531342 -0.0024292958 0.0006660098
000060 ca 81 31 3b 54 43 09 bb b2 f4 03 be a8 57 54 3e
       0.0027085417 -0.0020944672 -0.12886313 0.20736563
000070 94 e6 92 be be 2f 82 bb 27 70 e5 be 24 c7 12 be
       -0.28691542 -0.0039729765 -0.44812128 -0.14333779
000080 e7 27 dd 3d 60 5d 82 be 38 af 27 ba 50 3d 59 3e
       0.107986264 -0.25461864 -0.0006396654 0.21214795
000090 ce 22 d3 ba a2 72 c5 3d 1b 11 5f 3b f6 b0 2b bf
       -0.0016108395 0.09641005 0.0034037295 -0.67066896
0000a0 22 d7 76 39 a8 e7 dc ba 05 82 bf 3e 53 ef bd 3b
       0.00023540531 -0.0016853707 0.37403885 0.005796352
0000b0 93 1c 03 bf 2a c8 83 3e d1 05 18 3e 66 e5 08 3f
       -0.51215476 0.2573865 0.14845969 0.53475034
0000c0 30 5d be be aa 18 75 bb 21 e5 34 bc 6e 18 44 3e
       -0.3718047 -0.0037398734 -0.011040957 0.19149944
0000d0 89 ef 5e bd 40 83 a3 bd d3 ff 04 3b 5e ef 22 3e
       -0.054427657 -0.07984018 0.0020294085 0.15911624
0000e0 36 90 7c 39 eb 8e 31 3a 12 84 02 3e c4 75 86 bb
       0.00024086316 0.00067733106 0.12745693 -0.004103394
0000f0 52 88 85 bb 38 37 d7 3d 15 ec de 39 39 aa 01 bf
       -0.0040750885 0.10508579 0.00042519034 -0.50650364
